…
        "code": "SUCCESS",
        "type": "TEXT",
        "msg": "_________________________________________________________________\nLayer (type)                 Output Shape              Param #   \n\u003d\u003d\u003d\u003d\u003d\u003d\u003d\u003d\u003d\u003d\u003d\u003d\u003d\u003d\u003d\u003d\u003d\u003d\u003d\u003d\u003d\u003d\u003d\u003d\u003d\u003d\u003d\u003d\u003d\u003d\u003d\u003d\u003d\u003d\u003d\u003d\u003d\u003d\u003d\u003d\u003d\u003d\u003d\u003d\u003d\u003d\u003d\u003d\u003d\u003d\u003d\u003d\u003d\u003d\u003d\u003d\u003d\u003d\u003d\u003d\u003d\u003d\u003d\u003d\u003d\nencoder_input (InputLayer)   (None, 28, 28, 1)         0         \n_________________________________________________________________\nconv2d_5 (Conv2D)            (None, 14, 14, 32)        320       \n_________________________________________________________________\nconv2d_6 (Conv2D)            (None, 7, 7, 64)          18496     \n_________________________________________________________________\nflatten_3 (Flatten)          (None, 3136)              0         \n_________________________________________________________________\nlatent_vector (Dense)        (None, 16)                50192     \n\u003d\u003d\u003d\u003d\u003d\u003d\u003d\u003d\u003d\u003d\u003d\u003d\u003d\u003d\u003d\u003d\u003d\u003d\u003d\u003d\u003d\u003d\u003d\u003d\u003d\u003d\u003d\u003d\u003d\u003d\u003d\u003d\u003d\u003d\u003d\u003d\u003d\u003d\u003d\u003d\u003d\u003d\u003d\u003d\u003d\u003d\u003d\u003d\u003d\u003d\u003d\u003d\u003d\u003d\u003d\u003d\u003d\u003d\u003d\u003d\u003d\u003d\u003d\u003d\u003d\nT
…
___________________________________________\n_________________________________________________________________\nLayer (type)                 Output Shape              Param #   \n\u003d\u003d\u003d\u003d\u003d\u003d\u003d\u003d\u003d\u003d\u003d\u003d\u003d\u003d\u003d\u003d\u003d\u003d\u003d\u003d\u003d\u003d\u003d\u003d\u003d\u003d\u003d\u003d\u003d\u003d\u003d\u003d\u003d\u003d\u003d\u003d\u003d\u003d\u003d\u003d\u003d\u003d\u003d\u003d\u003d\u003d\u003d\u003d\u003d\u003d\u003d\u003d\u003d\u003d\u003d\u003d\u003d\u003d\u003d\u003d\u003d\u003d\u003d\u003d\u003d\ndecoder_input (InputLayer)   (None, 16)                0         \n_________________________________________________________________\ndense_8 (Dense)              (None, 3136)              53312     \n_________________________________________________________________\nreshape_2 (Reshape)          (None, 7, 7, 64)          0         \n_________________________________________________________________\nconv2d_transpose_4 (Conv2DTr (None, 14, 14, 64)        36928     \n_________________________________________________________________\nconv2d_transpose_5 (Conv2DTr (None, 28, 28, 32)        18464     \n_________________________________________________________________\nconv2d_transpose_6 (Conv2DTr (None, 28, 28, 1)         289       \n_________________________________________________________________\ndecoder_output (Activation)  (None, 28, 28, 1)         0         \n\u003d\u003d\u003d\u003d\u003d\u003d\u003d\u003d\u003d\u003d\u003d\u003d\u003d\u003d\u003d\u003d\u003d\u003d\u003d\u003d\u003d\u003d\u003d\u003d\u003d\u003d\u003d\u003d\u003d\u003d\u003d\u003d\u003d\u003d\u003d\u003d\u003d\u003d\u003d\u003d\u003d\u003d\u003d\u003d\u003d\u003d\u003d\u003d\u003d\u003d\u003d\u003d\u003d\u003d\u003d\u003d\u003d\u003d\u003d\u003d\u003d\u003d\u003d\u003d\u003
…
