…
3d\u003d\u003d\u003d\u003d] - 0s 0us/step\n\n_________________________________________________________________\nLayer (type)                 Output Shape              Param #   \n\u003d\u003d\u003d\u003d\u003d\u003d\u003d\u003d\u003d\u003d\u003d\u003d\u003d\u003d\u003d\u003d\u003d\u003d\u003d\u003d\u003d\u003d\u003d\u003d\u003d\u003d\u003d\u003d\u003d\u003d\u003d\u003d\u003d\u003d\u003d\u003d\u003d\u003d\u003d\u003d\u003d\u003d\u003d\u003d\u003d\u003d\u003d\u003d\u003d\u003d\u003d\u003d\u003d\u003d\u003d\u003d\u003d\u003d\u003d\u003d\u003d\u003d\u003d\u003d\u003d\ninput_3 (InputLayer)         (None, 28, 28, 1)         0         \n_________________________________________________________________\nconv2d_189 (Conv2D)          (None, 26, 26, 32)        320       \n_________________________________________________________________\nmax_pooling2d_9 (MaxPooling2 (None, 13, 13, 32)        0         \n_________________________________________________________________\nconv2d_190 (Conv2D)          (None, 11, 11, 64)        18496     \n_________________________________________________________________\nmax_pooling2d_10 (MaxPooling (None, 5, 5, 64)          0         \n_________________________________________________________________\nflatten_1 (Flatten)          (None, 1600)              0         \n_________________________________________________________________\ndense_1 (Dense)              (None, 512)               819712    \n_________________________________________________________________\ndropout_1 (Dropout)          (None, 512)               0         \n_________________________________________________________________\nx_train_out (Dense)          (None, 10)                5130      \n\u003d\u003d\u003d\u003d\u003d\u003d\u003d\u003d\u003d\u003d\u003d\u003d\u003d\u003d\u003d\u003d\u003d\u003d\u003d\u003d\u003d\u003d\u003d\u003d\u003d\u003d\u003d\u003d\u003d\u003d\u003d\u003d\u003d\u003d\u003d\u003d\u003d\u003d\u003d\u003d\u003d\u003d\u003d\u003d\u003d\u003d\u003d\u003d\u003d\u003d\u003d\u003d\u003d\u003d\u003d\u003d\u003d\u003d\u003d\u003d\u003d\u003d\u003d\u003d\u003d\n
…
