…
acting MNIST-data/t10k-labels-idx1-ubyte.gz\n_________________________________________________________________\nLayer (type)                 Output Shape              Param #   \n\u003d\u003d\u003d\u003d\u003d\u003d\u003d\u003d\u003d\u003d\u003d\u003d\u003d\u003d\u003d\u003d\u003d\u003d\u003d\u003d\u003d\u003d\u003d\u003d\u003d\u003d\u003d\u003d\u003d\u003d\u003d\u003d\u003d\u003d\u003d\u003d\u003d\u003d\u003d\u003d\u003d\u003d\u003d\u003d\u003d\u003d\u003d\u003d\u003d\u003d\u003d\u003d\u003d\u003d\u003d\u003d\u003d\u003d\u003d\u003d\u003d\u003d\u003d\u003d\u003d\ninput_1 (InputLayer)         (128, 28, 28, 1)          0         \n_________________________________________________________________\nconv2d_1 (Conv2D)            (128, 26, 26, 32)         320       \n_________________________________________________________________\nmax_pooling2d_1 (MaxPooling2 (128, 13, 13, 32)         0         \n_________________________________________________________________\nconv2d_2 (Conv2D)            (128, 11, 11, 64)         18496     \n_________________________________________________________________\nmax_pooling2d_2 (MaxPooling2 (128, 5, 5, 64)           0         \n_________________________________________________________________\nflatten_1 (Flatten)          (128, 1600)               0         \n_________________________________________________________________\ndense_1 (Dense)              (128, 512)                819712    \n_________________________________________________________________\ndropout_1 (Dropout)          (128, 512)                0         \n_________________________________________________________________\nx_train_out (Dense)          (128, 10)                 5130      \n\u003d\u003d\u003d\u003d\u003d\u003d\u003d\u003d\u003d\u003d\u003d\u003d\u003d\u003d\u003d\u003d\u003d\u003d\u003d\u003d\u003d\u003d\u003d\u003d\u003d\u003d\u003d\u003d\u003d\u003d\u003d\u003d\u003d\u003d\u003d\u003d\u003d\u003d\u003d\u003d\u003d\u003d\u003d\u003d\u003d\u003d\u003d\u003d\u003d\u003d\u003d\u003d\u003d\u003d\u003d\u003d\u003d\u003d\u003d\u003d\u003d\u003d\u003d\u003d\u003d\n
…
